.dart_tool/chrome-device/Default/optimization_guide_prediction_model_downloads/2120721f-8455-44c6-a98b-1182ecccccb4/model.tflite (tflite, 409956 bytes, 166 tensors)

context_transformer_0/bottleneck_input/norm/add f4 [32]
000000 67 80 6f bb fa 15 5a 3e 19 d5 8d 3d b4 4f b1 3d
       -0.003654504 0.21297446 0.06925411 0.0865778
000010 2e 8b 1c bd 7e d3 ad 3c 12 61 5d bd 5e f2 6f bb
       -0.03821867 0.021219011 -0.05404765 -0.0036612968
000020 50 65 0e be 04 5a c4 bc 2b 26 d8 bc ac 7f 4a 3c
       -0.13905835 -0.023968704 -0.026385387 0.012359541
000030 62 0b a5 3d 14 87 41 bd f8 d0 9b bd 9e 3a 3d be
       0.08058812 -0.04724796 -0.07608217 -0.18479392
000040 fe 85 bf 3d 8b b1 81 3d 2e 8e 35 bc fc 80 6e 3d
       0.09351729 0.06332692 -0.011081262 0.058228478
000050 5a ef ef 3d c3 b1 18 3e 25 d8 4d 3d e6 45 25 bc
       0.117155746 0.1491156 0.05025496 -0.010087466
000060 90 d7 82 3c a3 8c 8f bd 60 6e 7f bd a9 60 c7 3d
       0.015971929 -0.07009246 -0.06236112 0.09735233
000070 3e 87 0d bd bf ef f2 bc be 7c 55 bd 42 d2 f2 3b
       -0.034552805 -0.029655335 -0.052120917 0.0074103186

context_transformer_1/bottleneck_input/norm/add f4 [32]
000000 f4 0d c3 bc 1c 49 f8 3d 06 ec a0 bb b7 f6 97 3c
       -0.023810364 0.121233195 -0.0049109487 0.01855026
000010 74 14 44 3c aa f6 54 bc 58 56 6d 3e 5f 50 d3 bc
       0.011967767 -0.012998262 0.23177469 -0.02579516
000020 c2 ef 4e 3e 6b c8 80 3d c2 c8 33 bd 61 9f 23 3c
       0.20208648 0.06288227 -0.04389263 0.009986729
000030 20 08 8a 3d ae 70 8b bd b6 e9 b8 3d a1 7d 8d bd
       0.06739831 -0.06808601 0.09028952 -0.069087274
000040 e4 c2 b4 bd f6 72 52 bd 78 79 38 3d e6 30 6c 3d
       -0.08826235 -0.051379167 0.045037717 0.05766382
000050 d5 91 53 be 68 82 00 3e 65 0c ab 3d ef c8 df 3d
       -0.206611 0.12549746 0.083519734 0.10926997
000060 a6 7c f8 3b 21 f2 23 3d 84 0f 44 bd f1 c1 69 bd
       0.0075832186 0.040025834 -0.04786636 -0.057069723
000070 c3 02 03 3d 10 ea 73 ba 1e 01 4c 3d bf 59 6b be
       0.031985056 -0.00093045924 0.049805753 -0.22983454

mention_transformer_0/bottleneck_input/norm/add f4 [32]
000000 c6 a7 a3 3c c4 d5 91 3d 08 24 3c 3e 9d aa 20 be
       0.019977462 0.07120851 0.1837312 -0.15690084
000010 50 76 84 3c 7a 5f 17 be 26 84 c8 bc 28 11 05 b9
       0.016169697 -0.14782515 -0.024477076 -0.0001269026
000020 95 1f 88 bd 5d 52 0a 3c a8 0f 09 bd 8c 29 57 3e
       -0.06646649 0.0084424885 -0.033462197 0.21011943
000030 5a d4 41 bc 06 9d 82 be 50 1f 4c bd ca 96 22 3e
       -0.011830414 -0.25510424 -0.04983455 0.15877834
000040 72 62 05 bd 2d 64 06 be 92 49 0e bd 5c f4 e5 3d
       -0.032564588 -0.13124152 -0.03473813 0.112282485
000050 77 1b 1d bd 72 8a b9 bd bb 12 c9 3d 3e 62 15 be
       -0.03835627 -0.090596095 0.09818026 -0.14588258
000060 84 64 a6 3d 2b be 46 bd a9 71 2d 3b ea 8b 99 be
       0.081246406 -0.048521202 0.0026465452 -0.29989558
000070 c1 b1 80 bd ae 4e c1 3c eb e4 63 bb 61 b0 f4 3d
       -0.06283904 0.023597088 -0.0034773897 0.11947704

mention_transformer_1/bottleneck_input/norm/add f4 [32]
000000 4a b9 4f 3e 0c 14 62 bc 2a bb cf bd 15 a8 5c 3e
       0.20285526 -0.013798725 -0.101431206 0.21548493
000010 dc d3 1f 3e c0 ec 0d bd 41 de 5d be 35 79 82 be
       0.15608162 -0.03464961 -0.21666814 -0.254831
000020 a9 f6 a7 be 16 50 01 be 2d e9 ab bd 73 7c c9 3e
       -0.32805374 -0.12628207 -0.08394084 0.3935276
000030 c6 ff fd 3e 50 3c 96 3d de 79 cb 3c 4f aa 0e 3d
       0.49609202 0.073357224 0.024838384 0.034830388
000040 f2 33 1c 3e 60 93 6a be 7b ff c2 bd 60 36 8c 3e
       0.1525419 -0.22907782 -0.09521385 0.27385235
000050 fc 3a 0d 3e 32 5e 50 3e ba b0 54 3e b6 82 8a 3e
       0.13792032 0.20348433 0.20770541 0.2705285
000060 6e 3a 6d be 52 c6 f6 be 4e fd 92 3e fa 16 1a 3f
       -0.2316682 -0.4819818 0.2870888 0.6019131
000070 7e c6 4f be e3 29 74 3d 09 77 8d 3e 8d 76 91 be
       -0.20290563 0.05961026 0.2762988 -0.2841076

context_transformer_0/attention/value/add;context_transformer_0/attention/value/einsum/Einsum;context_transformer_0/attention/value/add/ReadVariableOp/resource f4 [32]
000000 53 09 3b bd 65 3e 8a bd 8f 3d d5 3c 1d 1c 1b be
       -0.04566319 -0.06750182 0.02603033 -0.15147443
000010 f2 92 94 3d 72 d7 1f be 3d 9d 5e 3e 75 c8 3d bd
       0.0725459 -0.1560953 0.21739669 -0.04633375
000020 c0 d8 15 3e b2 ae b7 3d 6d 71 ac bd 17 89 23 3e
       0.14633465 0.08968867 -0.08420072 0.15970264
000030 74 3b 9d 3d 91 25 1e 3b 1a a9 2c 3d e9 f6 02 bd
       0.076773554 0.0024131278 0.042153455 -0.031973753
000040 39 81 a9 bd 27 a3 3a 3d d3 22 f3 3c a8 51 31 bd
       -0.082766004 0.04556575 0.029679691 -0.043290764
000050 60 af 2d 3d bb d4 38 3d f9 25 1d bd 92 93 45 3d
       0.04240358 0.04512475 -0.03836629 0.048236437
000060 54 f1 c4 bd 7f d0 42 3d 3a d7 e2 3c 53 1d a4 bd
       -0.09616342 0.04756212 0.027690519 -0.08013406
000070 ab fe 0f be 6d a0 3b be b1 e9 19 bd 7f d5 23 be
       -0.14061992 -0.18322916 -0.03757638 -0.15999411

context_transformer_0/bottleneck_input/norm/mul f4 [32, 32]
000000 f1 cf 53 bd 2c d3 89 3e d1 d1 90 be fd 34 96 be
       -0.05171198 0.26918924 -0.28285077 -0.29337302
000010 1f ca 0c be 98 08 f2 3d 3e 4f bb be d7 19 73 3d
       -0.13748978 0.118180454 -0.36583894 0.059350815
000020 cf 30 ca be 86 44 b1 be 6b d1 67 3e 81 c8 d2 3e
       -0.39490363 -0.34622592 0.2263848 0.41168597
000030 99 b0 07 3e b8 bb 94 be 55 89 bc 3d 14 99 14 3f
       0.1325096 -0.29049468 0.092058815 0.5804608
000040 6e 27 a5 be 69 a2 77 bd 08 ad 7f bd 2e 6c 87 be
       -0.32256645 -0.06045762 -0.062420875 -0.26449722
000050 7a 82 cb 3e d6 e5 ad be b4 3a e9 bd 89 ef 0e 3f
       0.39747983 -0.33964413 -0.1138815 0.5583425
000060 10 e2 3a bd 6b eb 1d be b8 55 99 be c5 ec 0c bf
       -0.045625746 -0.15421836 -0.2994821 -0.5504878
000070 6a c8 e5 bd 43 5d de 3d bb 6f 1f 3e ac f5 9e 3e
       -0.112198666 0.10857632 0.15569966 0.31046808
000080 e0 0c ab 3d bc 28 ef bd 20 40 29 be 87 b9 00 bf
       0.08352065 -0.11677691 -0.16528368 -0.5028309
000090 10 13 c3 be 1a c7 ed 3e c2 a5 34 3d af 41 dd 3d
       -0.3810048 0.46440965 0.04410339 0.10803544
0000a0 ff c6 51 3e 5c 47 5f be 24 74 5b 3e a2 ce 65 3e
       0.20486067 -0.21804565 0.21431023 0.22442105
0000b0 ec 0a 32 bd cb 00 b8 3b e3 b5 b8 3d 50 f5 f6 3d
       -0.043467447 0.005615329 0.09019067 0.120585084
0000c0 3c 28 5e bc 02 77 b8 3e 69 83 c8 be 9b 8f 0f bf
       -0.013559397 0.36028296 -0.39162758 -0.560785
0000d0 38 f0 e7 3d d1 b3 13 be 00 88 6c be 35 78 c9 3e
       0.11325115 -0.14424063 -0.23098755 0.39349523
0000e0 07 25 b1 3e 1b c6 db be 6c 04 8f be bc b2 cf be
       0.34598562 -0.4292458 -0.2793306 -0.4056605
0000f0 97 5f 81 3e 17 b5 da 3d eb 64 f3 be 6e 3b 38 3c
       0.25268242 0.106790714 -0.47537932 0.011244638
000100 38 0b 0c bf 3c 3f 12 3d 4b d2 0e 3f 06 70 ca bd
       -0.5470462 0.035704836 0.5578963 -0.09884648
000110 4c fb 02 bf 12 5a 8a bc 2a 4b a3 be 69 03 09 be
       -0.511647 -0.016888652 -0.31893283 -0.13380207
000120 59 60 89 3e 57 7f 3c 3e e5 11 83 3d 6b 6d e6 bc
       0.2683132 0.18407951 0.063998975 -0.028128346
000130 40 53 9d 3e b0 12 06 3d a5 8c 0e bd 97 7d 46 3e
       0.30727577 0.032732666 -0.034802098 0.19383846
000140 5e 80 ec 3d 50 0d 2e 3d f2 da 57 3f c9 38 aa be
       0.115479216 0.042493165 0.8431846 -0.3324645
000150 94 16 c3 3e 14 74 f4 be 7b 24 90 3e 80 09 ea bc
       0.38103163 -0.4774481 0.28152832 -0.028568983
000160 7d 49 74 bd 95 54 95 3c 0f 01 7a 3e d2 f9 a2 be
       -0.059640396 0.018228808 0.24414466 -0.31831223
000170 e9 da ac be c0 65 55 be 37 43 3d 3e ed 93 c3 3e
       -0.33760765 -0.20839596 0.18482672 0.38198796
000180 f7 c3 05 3d bb c5 db bc cb 12 00 be 46 8e 99 bd
       0.03265759 -0.026827684 -0.12507169 -0.0749784
000190 75 17 01 bc e4 df 9b bc db e1 91 be bf 0c 97 3d
       -0.007879128 -0.019027658 -0.28492627 0.07375478
0001a0 ef ba 81 be 3d 89 c6 be 0b fa 2a bd 75 b8 61 be
       -0.25337932 -0.3877658 -0.041742366 -0.22043021
0001b0 f9 69 c6 bd e8 f5 f5 bc a1 3a 4b be 9c 85 a6 3d
       -0.096881814 -0.030024484 -0.19846584 0.08130953
0001c0 ca 37 44 3e 86 34 87 3e 73 85 fc 3d a7 85 6f be
       0.19161907 0.2640726 0.12330141 -0.23390828
0001d0 76 a2 77 3e e3 9d 25 3f 9e 39 3e be de 0b b1 3e
       0.24183068 0.6469404 -0.18576667 0.34579366
0001e0 b8 82 9a be 27 a3 b0 be e3 2b b2 bd f5 5f e1 3e
       -0.30177855 -0.34499475 -0.08699777 0.44018522
0001f0 ad 2a 84 3d f3 b8 38 bd 84 11 40 3e b2 d4 8a bc
       0.06453452 -0.045098256 0.18756682 -0.016947124
000200 e5 79 16 3f 42 b4 1e 3d 98 a5 e2 3c 55 cd 50 bd
       0.58779746 0.038746126 0.027666852 -0.05097707
000210 bc 4c d8 3d 29 71 4b be c0 20 f9 be f3 37 68 3e
       0.10561511 -0.19867386 -0.486578 0.22677593
000220 99 2a 08 3e 51 6e 21 be 71 32 8b 3e 66 ef 3e 3d
       0.132975 -0.15764739 0.2718692 0.046615027
000230 7d 6d 21 3e 18 e4 dd 3c 0a 9a 80 3d 97 b8 c8 bd
       0.15764423 0.027086303 0.062793806 -0.09800833
000240 85 59 0e 3e 02 59 29 bd ea d8 af be 78 de 0c be
       0.13901336 -0.04134465 -0.3434518 -0.1375674
000250 cd 01 97 be bc 25 a8 3e 75 cc a2 be f8 36 81 3e
       -0.2949356 0.3284129 -0.31796613 0.2523725
000260 13 83 e4 3d 4c 86 3b bd 69 4a 36 be 30 5d fa 3a
       0.11157813 -0.045782372 -0.17801823 0.0019101258
000270 7f 7f 5c be 44 fe 20 be 3f ca 0a be 61 f4 61 be
       -0.21533011 -0.15721995 -0.13553713 -0.2206588
000280 43 72 55 3e ae aa 29 be 97 82 1c 3e ce 1b 8a 3d
       0.20844369 -0.16569015 0.15284191 0.067435846
000290 64 cc 81 bd 0c ef 45 be 31 ea 34 3e 08 a1 00 bc
       -0.063378125 -0.1932947 0.17667462 -0.007850893
0002a0 52 bb f4 3d 98 96 b2 bd 7c 16 9c 3c 37 98 33 be
       0.11949791 -0.0872013 0.01905369 -0.17538534
0002b0 f3 c3 95 3d 1e e7 a2 3d c9 ea 0a bd 4b ac 34 bd
       0.07312765 0.07954238 -0.033915315 -0.044109624
0002c0 8a d3 77 bd 8e 9f cc 3d 12 70 ea 3d 44 65 d5 3c
       -0.060504474 0.0999137 0.11447157 0.026049264
0002d0 3f da 06 bd 2e 24 8f 3d da e1 08 b9 51 89 e6 3d
       -0.03292298 0.069893226 -0.00013054107 0.1125666
0002e0 1e 65 c8 3d 98 4a 30 3e 0c 00 ef 3c d4 47 be bd
       0.097849116 0.17215955 0.029174827 -0.09291044
0002f0 7a 7f 1e bd 30 b5 83 3d cf 4b 6c 3e 64 85 33 be
       -0.03869579 0.06431043 0.23075794 -0.17531353
000300 3f 5f 18 3e e3 1b 87 be c3 52 ba be a1 9b 6a 3d
       0.14880084 -0.26388463 -0.36391267 0.057277326
000310 28 e0 1f 3e 60 3a 1b be fd 3f ab be cd 12 30 3e
       0.15612853 -0.15158987 -0.33447257 0.17194672
000320 f5 28 1b 3e 5b 6f 86 3c a6 85 d5 bd c4 93 10 be
       0.15152343 0.01641052 -0.10425882 -0.14118868
000330 e3 8f 64 bd 48 bf 42 bd 9b 6e 7f 3d e6 03 ad be
       -0.055801284 -0.0475457 0.06236134 -0.33792037
000340 d4 86 98 b9 f7 81 03 3d 65 53 28 3d 9e 7a 3e 3e
       -0.00029092154 0.032106366 0.041095156 0.18601462
000350 d4 4a 83 be e9 c7 7c bc e7 4b 11 3e 9d 87 80 bd
       -0.25643027 -0.015428522 0.1418911 -0.06275866
000360 3b 69 7d 3e 45 53 66 bd 63 07 b5 3a 74 19 79 be
       0.24747173 -0.056231756 0.0013811406 -0.24326116
000370 45 99 f7 3d 7b bf 61 bd 3d c7 50 be c2 0e 29 be
       0.12089781 -0.05511425 -0.20388503 -0.16509536
000380 0a 8b 2b bd 29 a9 00 3d 26 07 c4 bd fa e1 bd 3e
       -0.041880645 0.031411324 -0.09571676 0.3708647
000390 9f a9 0e 3e 4e bb 45 be 16 f6 6e 3e 33 35 3f be
       0.13931893 -0.19309732 0.23336062 -0.18672638
0003a0 15 62 be bd 55 a2 46 3d 92 b3 98 bd e7 a9 67 be
       -0.092960514 0.048494656 -0.07456125 -0.22623406
0003b0 0b 94 19 bd 92 f9 9c 3d 37 f4 0c bd c5 81 2d be
       -0.0374947 0.07664789 -0.03441259 -0.16944034
0003c0 16 40 6d bc 89 38 aa bd 37 eb 40 3e e3 41 91 ba
       -0.014480611 -0.083115645 0.18839727 -0.0011082258
0003d0 22 5b 96 bd 62 52 8d 3e 1c 40 b4 bd 50 37 5b bc
       -0.07341601 0.27601916 -0.088012904 -0.013379887
0003e0 8a 44 c0 bc b6 8f 82 3e 6e 70 45 be 72 38 8a 3e
       -0.023470182 0.25500268 -0.1928117 0.2699619
0003f0 8e 43 bb 3e 1f c1 0a be dc b1 46 bd e4 bf 3f 3e
       0.36574978 -0.13550232 -0.048509464 0.18725544

context_transformer_0/kq_shared_bottleneck/norm/mul;context_transformer_0/kq_shared_bottleneck/norm/add;context_transformer_0/attention/key/einsum/Einsum;context_transformer_0/attention/key/add;context_transformer_0/attention/value/einsum/Einsum;context_transformer_0/attention/key/add/ReadVariableOp/resource f4 [32]
000000 99 9d 21 bf b2 82 06 bf cf 0a 0f be 22 05 53 be
       -0.631311 -0.52543175 -0.13968967 -0.20607427
000010 8e ad 68 3e c6 0c 3b bb 2c 45 5c 3e 7f 6a a5 bd
       0.22722456 -0.002854155 0.21510762 -0.08076953
000020 19 38 87 bb 62 4f da 3d 6c e2 86 3e d0 37 89 3e
       -0.0041265604 0.10659672 0.2634462 0.26800394
000030 0b d9 d2 bc 3f 1e 9a 3e f8 07 e9 be 3a cd ca be
       -0.02573826 0.301012 -0.45513892 -0.396097
000040 11 f1 81 be 3f 66 7f 3e 22 62 b0 3e 8c bb c0 be
       -0.25379232 0.24941348 0.3444987 -0.37643087
000050 8e b8 10 3e 26 ac 72 bd d3 77 26 bd 8d a3 72 3d
       0.14132902 -0.059246205 -0.040641617 0.059238005
000060 5a e3 3e 3e a9 5b 50 3d be 85 06 3d 68 4b 51 3d
       0.18641415 0.050868664 0.03284239 0.051097304
000070 71 bc cb 3e d4 a8 d4 3e 63 1f 49 be 0f 16 95 3d
       0.39792207 0.41535056 -0.1964088 0.07279598

context_transformer_0/kq_shared_bottleneck/norm/mul;context_transformer_0/kq_shared_bottleneck/norm/add;context_transformer_0/attention/key/einsum/Einsum;context_transformer_0/attention/key/add;context_transformer_0/attention/value/einsum/Einsum;context_transformer_0/attention/key/add/ReadVariableOp/resource1 f4 [32, 32]
000000 f6 26 29 be 6a a3 33 be be ea 1d 3e c3 94 24 be
       -0.16518769 -0.17542806 0.15421578 -0.16072373
000010 6f ff 76 bd 3c bb 0c bf c7 3a 55 3e 9e 67 8f bd
       -0.060302194 -0.54973197 0.20823203 -0.07002185
000020 32 7b d6 3e d9 63 9a bd 0f 5f f2 3d 2b 5e 11 bf
       0.41890866 -0.07538576 0.11834537 -0.56784314
000030 85 78 22 bf bd f2 d1 bd 96 85 81 bd c3 f2 04 bf
       -0.6346515 -0.10251377 -0.063243076 -0.51932925
000040 ea de 05 bf 0e d5 01 3f 3e 04 b5 3d b9 1c 4f 3e
       -0.52293265 0.5071572 0.088387 0.202258
000050 28 89 35 bd c4 36 db 3e 16 c1 cd 3e b5 81 6d be
       -0.044320256 0.4281522 0.40186375 -0.2319401
000060 7d 54 9d be 52 10 18 3e e6 1c 23 be 0b b0 be be
       -0.30728522 0.14849976 -0.15928993 -0.37243685
000070 25 20 e6 bd 49 0c 13 be 53 9d 99 3c e0 a3 f5 be
       -0.112366 -0.14360155 0.018751776 -0.4797659
000080 50 16 67 be be 01 1a be 78 61 9a 3e 28 70 05 be
       -0.22567105 -0.15039727 0.30152488 -0.13031065
000090 bd 54 e3 bd ab b6 0c bf 82 04 38 3e 46 92 74 bd
       -0.11100147 -0.5496623 0.1797047 -0.05970981
0000a0 52 87 c9 3e 41 54 fa bd fd ed 38 3e f7 fc b9 be
       0.39361054 -0.122231014 0.18059535 -0.3632581
0000b0 72 7a 08 bf 57 07 3f be 78 2e 47 3d 64 d0 de be
       -0.53311837 -0.18655144 0.0486283 -0.43518364
0000c0 00 7b 3a bf fa aa 9d 3e a2 3e 0d 3d 04 0a 85 3e
       -0.72843933 0.30794507 0.03448356 0.25984204
0000d0 df 37 84 3e a1 38 d4 3e 27 e8 98 3e 1a 9d 70 be
       0.25823876 0.41449454 0.29864618 -0.2349743
0000e0 77 c4 89 be 1b fd 70 3e 80 5a 81 bd 01 48 ad be
       -0.26907703 0.23534052 -0.0631609 -0.33843997
0000f0 8e ab f2 bd 40 80 ad bd 77 21 9c 3d dc 35 dc be
       -0.11849128 -0.08471727 0.076235704 -0.4300984
000100 43 d3 61 3e 00 38 af 3d 1e 9f 35 3e 7a 95 58 be
       0.22053246 0.08555603 0.1773648 -0.21150771
000110 cf 0d e2 be de c3 27 3d 3f 1b 98 3e 0f 5d be be
       -0.4415116 0.040958278 0.29708287 -0.37180373
000120 42 53 05 be 4e b0 cd be 30 30 a5 be 5a c1 78 be
       -0.13020042 -0.40173572 -0.32263327 -0.24292508
000130 8d 24 78 be cf 8b 10 bd 95 2e 82 3d 61 57 d1 be
       -0.24232693 -0.035289582 0.06356541 -0.40886977
000140 ee 0a e7 3e 9f f4 8c 3e c3 bb 6a be 12 88 84 be
       0.45125526 0.2753038 -0.22923188 -0.25885063
000150 4a 67 df be 43 0a 03 3e 2f f2 10 3e e0 fd 0a 3e
       -0.4363349 0.12796883 0.14154886 0.13573408
000160 8f 6f c8 3d 39 9b 71 be 49 4e e4 3e a1 13 18 be
       0.09786903 -0.23594369 0.44590977 -0.14851238
000170 1e 2f 16 3f 63 2c cd be 86 3c b8 3e 88 ec 32 be
       0.58665645 -0.40072927 0.35983676 -0.17473042
000180 69 b3 24 be a2 b5 1c bf ea a9 0d bf 1d 2b 1d bf
       -0.16084065 -0.6121465 -0.55337393 -0.6139391
000190 4c 29 07 3e 4c c2 f1 3d bd 2e c0 3d 9f 04 ba be
       0.13199347 0.11804637 0.093839146 -0.3633165
0001a0 90 39 a6 3d 3f 53 ae 3e ab 11 4f 3e 5c bd 09 bf
       0.08116448 0.34047887 0.20221584 -0.53804564
0001b0 de bc 44 3f 09 17 40 3e 28 56 0a bf 1c 0c 18 bc
       0.7685069 0.18758787 -0.54037714 -0.009280231
0001c0 70 ab 6e 3f 2c 88 0a 3f bd 5e 3b 3e 4c 18 13 3e
       0.9323034 0.5411403 0.18297859 0.14364737
0001d0 0e e2 84 bf 13 67 6e be 1c cc e2 3e 33 8a 4e 3e
       -1.0381486 -0.23281507 0.44296348 0.20169906
0001e0 86 22 53 be 36 00 86 3e 6d ac 0d 3d db b3 62 3e
       -0.20618638 0.26172036 0.034588266 0.22138922
0001f0 19 bb 90 3e f3 da af 3d f6 7a b0 bd 77 0c bf 3d
       0.28267744 0.08586683 -0.08617203 0.09328549
000200 ca 3b f1 3e 34 3b b9 3e ac 8f 95 bc 9c b5 e6 3e
       0.47115928 0.3617798 -0.018256985 0.45060432
000210 de 72 ca bd 31 c6 54 3d d8 43 04 3e 2e 5f 5d 3e
       -0.098851904 0.051946823 0.12916505 0.2161834
000220 42 f6 35 be cc da c4 3b f7 e2 0a bf a4 1a a8 bc
       -0.17769721 0.006007528 -0.5425257 -0.020520516
000230 d2 62 75 bf 44 2d e0 3d 24 8e 54 3d a7 f8 04 bf
       -0.9585391 0.10946134 0.05189337 -0.51941913
000240 31 ff 64 3e 3a 07 97 be 47 0d 46 3e 60 97 ff be
       0.22362973 -0.294977 0.19341002 -0.49920177
000250 9a 68 41 bf 9b 59 3e bd b2 65 47 be 69 28 51 bd
       -0.75550234 -0.046472173 -0.19472387 -0.05106393
000260 23 7c 84 3e eb 95 29 bf 21 48 da bd 36 47 85 be
       0.2587596 -0.6624438 -0.10658289 -0.26030892
000270 04 df 6d 3d e8 be 2c bd 2a e9 96 bc fd a1 68 bd
       0.058074012 -0.04217425 -0.018421728 -0.05679511
000280 e4 b1 b4 3d 95 41 21 3e 0d 24 b7 3e 25 9c a0 be
       0.088229924 0.15747674 0.35769692 -0.3136913
000290 40 ca de be 53 88 3d 3e fc 4b fe 3d ac 29 e6 be
       -0.4351368 0.18509035 0.124168366 -0.44953668
0002a0 44 b3 4d be 80 1b 12 bf d0 43 17 be b5 ca 02 3e
       -0.20087916 -0.5707321 -0.14771962 0.12772639
0002b0 89 90 bb 3e eb 5f 04 bd de 89 3e 3e 9e 2a a2 3c
       0.3663371 -0.032318037 0.1860728 0.019795712
0002c0 ca 32 af 3e d5 90 25 3e bf 81 b9 be 67 c8 9e bd
       0.34218436 0.1616853 -0.362318 -0.077530675
0002d0 1b 58 8c 3e d2 98 b7 3d 42 e6 80 bd f5 00 c6 3d
       0.2741097 0.08964695 -0.06293918 0.09668151
0002e0 54 e1 0d 3e b1 fc 87 3d 97 c2 3c 3f 24 87 6c 3c
       0.13855487 0.06639994 0.7373442 0.014436517
0002f0 6d 5c 23 3f 01 8d c2 be 0e 2b d9 3e b9 24 fd bc
       0.63812906 -0.37998202 0.4241566 -0.0309013
000300 82 e2 49 3e 06 bb 70 3e 40 07 d8 be 9c 8c 8c bd
       0.19715312 0.23508844 -0.4219303 -0.068627566
000310 ea 8d 38 3e c5 d9 8e 3e 91 bb ae bc d1 bc 29 be
       0.18022886 0.2790052 -0.021329673 -0.16575934
000320 88 1e 07 bd 17 8d e6 3e 9f 8c 86 be a8 ec 26 3e
       -0.0329881 0.45029518 -0.2627916 0.16301215
000330 45 4f cf 3e 66 4a 0b bd 52 37 9d be 4f a1 a1 3e
       0.40490165 -0.0340065 -0.3070627 0.3156838
000340 82 99 19 3f e7 bf 66 be e8 c0 13 be 23 00 0e bf
       0.5999986 -0.22534142 -0.14429057 -0.5546896
000350 74 2b dc be 2d 64 bd be 3e 9b 24 bd e8 2e 82 3e
       -0.43001902 -0.3699049 -0.040187113 0.25426412
000360 e0 06 dd bd 77 62 8a be e8 3e 5e be 88 7c 87 3e
       -0.10792327 -0.27028248 -0.21703684 0.26462197
000370 cf 03 08 be 22 4c 67 3e 17 ca e6 3b 2f 82 70 3e
       -0.13282703 0.22587636 0.007043134 0.23487161
000380 00 85 24 be 93 42 9e be cc 64 a2 3e 3e 6d 05 3e
       -0.1606636 -0.30910167 0.31717527 0.13029954
000390 f5 b1 d5 bd ad b4 45 be da 07 61 3e 5c ac b6 3e
       -0.10434333 -0.19307204 0.21975651 0.35678375
0003a0 44 39 10 be fd cf 7b 3e aa f7 d7 3e 2f db c2 be
       -0.14084345 0.2459106 0.4218114 -0.3805785
0003b0 a9 88 93 bc a3 1f 94 be ef 6a 41 be ac b7 04 bf
       -0.0180095 -0.28930387 -0.18888448 -0.5184276
0003c0 4d 15 33 be 5a d9 dd 3d 23 d3 f8 3d b9 19 12 3f
       -0.17488594 0.10832472 0.12149646 0.570705
0003d0 66 89 ec 3e 9c 6e a3 bc 07 c3 9e 3e 32 de 8f 3e
       0.46198577 -0.019950204 0.3100817 0.2809921
0003e0 d2 52 01 3e 37 a1 da 3d fc 4d e6 bc fb ee 13 3f
       0.1262925 0.106752805 -0.028113358 0.5778653
0003f0 75 da ce 3d 86 5a 9d bd 1f 08 98 3d 88 87 b6 3c
       0.10100261 -0.076832816 0.07423424 0.022281423

context_transformer_0/kq_shared_bottleneck/norm/mul;context_transformer_0/kq_shared_bottleneck/norm/add;context_transformer_0/attention/query/einsum/Einsum;context_transformer_0/attention/query/add;context_transformer_0/attention/value/einsum/Einsum;context_transformer_0/attention/query/add/ReadVariableOp/resource;context_transformer_0/attention/Mul;context_transformer_0/attention/Mul/y f4 [32]
000000 07 92 b4 3e f6 71 92 3e bc f9 28 3e c7 e0 07 3e
       0.3526766 0.2860257 0.16501516 0.1326934
000010 8a 28 12 bd fe c6 88 3c f2 21 f4 bd fe 54 11 3e
       -0.035683192 0.01669645 -0.11920537 0.14192578
000020 30 97 b1 3d 4d 0c 9f 3d be 70 41 be 00 59 80 be
       0.08671415 0.07766018 -0.18890664 -0.25067902
000030 a9 04 be bd 19 3d 3d be e7 bd 90 3e 26 48 9b 3e
       -0.092782326 -0.18480338 0.28269884 0.30328482
000040 90 b2 f3 bd 5c 58 b4 3d 4f aa 99 3c 5a 51 89 bd
       -0.118992925 0.08805916 0.018757967 -0.0670497
000050 4d 7d 17 3e 32 c2 23 be 47 58 10 be 88 b4 e9 3d
       0.14793892 -0.15992048 -0.14096175 0.11411387
000060 43 02 ec bc 0e a7 98 bd 4b 1e e7 bd 83 3f fd bd
       -0.028809672 -0.07453738 -0.11285075 -0.123656295
000070 6f cc 86 be 74 82 91 be e4 2d 24 bb e1 31 29 3d
       -0.26327845 -0.2841984 -0.0025051767 0.041307334

context_transformer_0/kq_shared_bottleneck/norm/mul;context_transformer_0/kq_shared_bottleneck/norm/add;context_transformer_0/attention/query/einsum/Einsum;context_transformer_0/attention/query/add;context_transformer_0/attention/value/einsum/Einsum;context_transformer_0/attention/query/add/ReadVariableOp/resource;context_transformer_0/attention/Mul;context_transformer_0/attention/Mul/y1 f4 [32, 32]
000000 3c d6 8b bd c3 dd 0d be 30 ac 0a bd 4e 0e 0f 3b
       -0.06827971 -0.13854127 -0.033855617 0.0021828595
000010 b3 2b cc bc 80 34 3e 3d 56 22 79 bd a5 b7 de 3d
       -0.024923181 0.046436787 -0.06082376 0.10874871
000020 27 0c a9 bd 10 f5 de 3b a9 88 a3 3d 16 5f bc 3d
       -0.08254271 0.006804116 0.0798505 0.09197824
000030 00 5c 40 be 78 9b 85 3d 8e 71 e6 3d 46 2b d5 3d
       -0.18785095 0.06523794 0.112521276 0.104086444
000040 87 8d 64 be 39 7f 66 be c8 fe 4c 3d 3f 8d 1a 3e
       -0.22319613 -0.22509469 0.050047666 0.15092944
000050 7c 04 52 be 15 1a 4b bd 63 5f 14 be 87 51 2e 3d
       -0.20509523 -0.04958542 -0.14489512 0.04255822
000060 9b e8 a1 3d ee b8 9f 3d 08 50 58 3c 4d 7f 1a 3d
       0.07905694 0.077989444 0.013202675 0.03771906
000070 f5 c7 e0 3c 5b 93 ce bc 17 6a 2d be 91 aa f0 3d
       0.027439097 -0.025216749 -0.16935001 0.11751283
000080 1c 16 b0 bd c8 eb d7 bd 6a 76 11 bc 4d c7 16 bd
       -0.08597967 -0.105430186 -0.00887833 -0.03681116
000090 fc 21 95 bc 9f ce 10 3d c3 58 a7 bd 7b 85 c0 3d
       -0.018204682 0.0353533 -0.08171227 0.094004594
0000a0 36 c4 9a bd fd e9 2d 3b 69 28 cc 3d c0 7b cc 3d
       -0.075569555 0.0026537173 0.09968645 0.09984541
0000b0 5c c9 2a be 34 18 1e 3d 55 a1 19 3e 54 ff c9 3d
       -0.16678375 0.0385973 0.1500295 0.09863153
0000c0 56 5b 95 be bf c4 66 be 55 1d da bc de b8 2e 3e
       -0.29171246 -0.2253599 -0.026625315 0.17062709
0000d0 36 e2 78 bd 7c 52 70 bc 76 76 14 be a2 75 b0 3d
       -0.060762607 -0.014668103 -0.14498314 0.08616187
0000e0 3d 25 9e 3d fd cb c3 3d d9 96 06 3d ee fb 29 3d
       0.077219464 0.09560392 0.032858703 0.041500024
0000f0 b0 79 5a 3c 54 85 ce bc 58 43 05 be 56 7c dc 3d
       0.013334677 -0.02521006 -0.13013971 0.10765903
000100 a8 7b 37 3d 13 b1 bd 3c 4f 99 05 3e 46 b4 ec 3d
       0.044795662 0.023155725 0.13046764 0.11557822
000110 f1 1f 5a be 1e 1f 90 3c 00 48 93 3d de 2c 66 3d
       -0.21301247 0.017592963 0.07191467 0.056195132
000120 0b e0 f2 bc 9f 3c 23 3e 84 8a b1 bd 1c 8c d3 3c
       -0.029647848 0.15941094 -0.08668998 0.025823645
000130 08 d4 4b 3e 15 87 45 3c a8 c6 39 be 17 1b fb 3c
       0.19905102 0.012056132 -0.18142188 0.030652566
000140 dd 7f b5 be 04 dc de bd 52 7c 2d 3e 7c 4f 81 bd
       -0.35449114 -0.108818084 0.16941956 -0.063139886
000150 fc ef ec bd 3d 8f 8a bc 3c 9a 42 bc 41 1c 2f be
       -0.11569211 -0.016914004 -0.011877593 -0.17100622
000160 e4 1e 45 3b 7c 75 b9 bd 59 46 3b 3e 32 c5 72 3c
       0.0030078227 -0.090556115 0.18288554 0.014817523
000170 82 41 8c 3e b8 e7 7f be fa f3 23 3c 90 4b 7b 3d
       0.27393728 -0.24990737 0.010006899 0.06135136
000180 e2 86 1c 3d 2b c6 71 be ca 1c 54 bd 66 17 90 bd
       0.03821457 -0.23610751 -0.051785268 -0.07035713
000190 56 9d 83 bd 2d 54 23 3e 71 51 90 3d 47 28 f2 bd
       -0.06426494 0.1595008 0.07046784 -0.118240885
0001a0 99 8c 98 3c f6 b7 d0 3d a6 a0 e4 3d 62 2f 00 3d
       0.01862173 0.10191338 0.11163454 0.031295188
0001b0 3d 13 9c 3e ce e9 04 3e a6 50 4f be 03 fe 9f 3c
       0.30483428 0.12979814 -0.20245609 0.019530302
0001c0 97 15 0c 3f 8e 67 c5 3d 44 c8 33 3e 73 d5 32 3e
       0.54720443 0.09638892 0.17556864 0.17464237
0001d0 2e 22 82 be 52 df be bd 98 0e 3d 3c f9 32 46 be
       -0.25416702 -0.09319939 0.011539124 -0.19355382
0001e0 cb db 66 3d ac a7 e9 3c 29 04 93 3d 56 f1 69 bc
       0.056361955 0.028522335 0.07178528 -0.01427873
0001f0 30 95 15 3e e5 d6 8a bc fc 8e f2 bc 6c 5b 38 3d
       0.14607692 -0.016948173 -0.029609196 0.04500906
000200 93 1f 80 3d b0 8c 08 3e dc 8b e0 bc bd d4 57 3e
       0.06256022 0.13334918 -0.02741044 0.21077247
000210 22 e4 2f 3c 99 63 fe bd ec 2e 9d 3d c6 c5 5d 3e
       0.010735543 -0.124213405 0.07674965 0.21657476
000220 7d 4e 84 3c b9 bf a8 3c 2f 95 57 be 70 4f 11 be
       0.016150707 0.020599233 -0.21053003 -0.14190459
000230 69 f2 96 be df 5b 59 bc f9 da 85 bd 8e d2 ca bd
       -0.2948182 -0.013266533 -0.06535906 -0.09903441
000240 1e dd 59 be 42 58 2f 3d cd f7 61 3e 73 b4 6d be
       -0.21275756 0.04280878 0.22067185 -0.23213367
000250 b5 e9 5f be 2b 79 01 3d bf be be 3d b3 42 55 bd
       -0.21866496 0.031609695 0.09313726 -0.052065562
000260 25 43 63 bd 46 5e 41 be 1b 56 0d bd 48 af eb bc
       -0.055483956 -0.18883619 -0.034505945 -0.028770104
000270 31 c8 16 3d 5c 49 c0 bd 63 3d 87 bd fa 1b 85 bc
       0.03681201 -0.09388992 -0.066035055 -0.016248692
000280 ee a7 9f 3c f2 c6 88 3d e6 21 4b 3e 78 cc 62 3c
       0.019489255 0.06678571 0.1983715 0.013842694
000290 19 ff 61 be 7c 4e bc 3c 6c 76 1e 3d de 93 be bd
       -0.22069968 0.022986643 0.038687155 -0.09305547
0002a0 69 ac b5 3a 5a 7d c3 3d e3 69 0d bd d8 f2 6d 3d
       0.0013860586 0.09545393 -0.03452481 0.058092922
0002b0 5b 80 d0 3e d2 36 65 bd 9b 2c 12 be da 7c 65 3d
       0.40722927 -0.055960484 -0.14274828 0.05602727
0002c0 a4 d1 d7 be b6 bd ac bd bb a2 43 bb 1e 3b 3d bd
       -0.4215213 -0.08434622 -0.0029851634 -0.046198957
0002d0 3b d3 2a 3e 8d 78 6f 3b 41 91 bf bc c1 18 00 be
       0.1668214 0.003654036 -0.023384692 -0.12509443
0002e0 93 a5 e4 bc fb 34 21 bc c2 c9 58 3e 65 8a 9a bc
       -0.027910983 -0.009839292 0.21170714 -0.01886482
0002f0 86 0c 8d 3e 5d c7 66 be 8a b8 df 3d 6c c8 a2 3c
       0.27548617 -0.22536989 0.1092387 0.01987096
000300 29 e3 cc 3d a8 54 1a 3e 46 8c a7 bd 2d 28 94 3c
       0.10004265 0.15071356 -0.08181052 0.018085564
000310 82 2b 33 3d ac 2d 69 3c 1c 24 04 3d f1 e1 bd bd
       0.043742664 0.01423208 0.032261 -0.092716105
000320 f4 6b 1a 3d 68 0c 5a 3d fe 3e 23 be d4 3a 44 bc
       0.03770061 0.053234488 -0.15941998 -0.011976916
000330 bb 62 bf 3c 58 53 ed 3c 6b fa e0 bd 8f a7 06 bb
       0.023362508 0.028970405 -0.109852634 -0.002054665
000340 e6 98 c7 3e 01 d5 11 3e 68 ff 58 3d 09 47 70 be
       0.3898384 0.14241411 0.05297795 -0.23464598
000350 8f bc e3 bc 19 2c 89 bc 63 5f 6c 3d ae 99 7c bd
       -0.027799873 -0.01674466 0.057708155 -0.061669998
000360 88 b8 57 bd 49 6c eb bd ff 9b 87 bd 79 72 85 3a
       -0.052666217 -0.11495263 -0.06621551 0.001018121
000370 cc 97 58 bd b6 09 b3 3d c1 85 ee 3c 94 0b 22 bd
       -0.05287914 0.087420866 0.029116513 -0.039561823
000380 e0 c3 f5 bb 77 de 01 be 51 c7 c9 3d 6b d4 87 3d
       -0.0075001568 -0.1268252 0.0985247 0.066323124
000390 66 eb d9 bd 6c 5e 80 3d 88 bc 49 3d eb ce ed 3d
       -0.10640602 0.062680095 0.049252063 0.11611732
0003a0 b1 1a 06 be 8c 07 85 3d c4 d0 3d 3e 5e 76 a2 3c
       -0.1309612 0.0649558 0.18536669 0.019831832
0003b0 e2 6b 00 3c c0 5a 50 bd 83 df 41 3d af 27 16 be
       0.007838221 -0.050867796 0.047332298 -0.14663576
0003c0 78 00 bc 3d 5e c8 8e bd 66 b3 43 bd 79 65 6f 3e
       0.09179777 -0.06971811 -0.04777851 0.23378552
0003d0 51 b7 ea 3d 27 cd c5 bd 0e 71 69 bc 79 a3 47 3e
       0.11460746 -0.0965827 -0.014248146 0.19495954
0003e0 61 f8 21 3e cd cb d1 bc b9 5b aa 3c c7 bd 35 3e
       0.15817405 -0.025609875 0.02079569 0.17748176
0003f0 31 ac d5 3c b1 f4 b3 bc 35 53 af 3d 9f db 73 3d
       0.026083084 -0.021967264 0.08560792 0.05953562

context_transformer_0/ffn_layer_0/intermediate_dense/einsum/Einsum;context_transformer_0/ffn_layer_0/intermediate_dense/Relu;context_transformer_0/ffn_layer_0/intermediate_dense/add f4 [32]
000000 5c e8 d9 bd 81 86 16 bd 8f 49 7d be 9b f9 aa bd
       -0.10640022 -0.036749367 -0.24735092 -0.0834839
000010 bc 7e e9 bd e6 12 ef bd f8 83 0c bd aa 2d 9c be
       -0.11401126 -0.116735265 -0.034305543 -0.3050359
000020 70 b4 87 be 5b 5f a0 3d 5b 00 96 be 46 75 3e be
       -0.2650485 0.078306876 -0.29297146 -0.18599424
000030 7e f7 bc 3c c3 37 61 be eb 54 d2 be a2 dd 8c 3c
       0.023067232 -0.21993928 -0.41080412 0.017195527
000040 4d f4 b2 be f5 4c 4b be 17 4c 43 bc 04 a8 e7 bd
       -0.34952012 -0.19853576 -0.011919997 -0.11311343
000050 46 e2 09 be 12 25 dd be b5 6a 25 be 06 b6 89 bd
       -0.13465223 -0.43192345 -0.16153987 -0.06724171
000060 f9 75 4a be 02 42 a0 bd ea bc a6 be 61 73 40 be
       -0.19771565 -0.0782509 -0.32566005 -0.18794014
000070 b7 4b d7 be 75 2e 77 be 2f 9a de be 5b 8a a5 bd
       -0.42049953 -0.24138816 -0.43477008 -0.0808303

context_transformer_0/attention/norm/mul;context_transformer_0/attention/norm/add;context_transformer_0/ffn_layer_0/intermediate_dense/einsum/Einsum;context_transformer_0/ffn_layer_0/intermediate_dense/Relu;context_transformer_0/ffn_layer_0/intermediate_dense/add f4 [32, 32]
000000 49 69 02 be 36 9d 4f bd 6b 06 a7 be 50 71 cf bd
       -0.12735476 -0.050687037 -0.32622084 -0.101290345
000010 6a 5b 22 bd f3 04 a7 3e be b4 6f 3d ba 8b e7 bd
       -0.03963796 0.32620963 0.05852198 -0.113059476
000020 a7 f4 fd 3d e7 e3 e6 3d ec 62 3e 3e 75 5c b5 bd
       0.12400179 0.11273938 0.18592423 -0.088555254
000030 d0 55 01 be 77 ad e2 bd 3c 56 ee be e6 1d 58 bd
       -0.12630391 -0.11068242 -0.46550167 -0.05276289
000040 4a 78 85 3e 32 51 02 be 38 32 10 3e c4 27 bc 3e
       0.26068336 -0.12726286 0.14081657 0.3674909
000050 24 55 69 3d 28 d9 97 3c 47 cd a7 bd 0f f3 df bd
       0.056965962 0.018536165 -0.081934504 -0.109350316
000060 12 6b d3 bd 02 76 c6 be 4f ba 75 be be a5 e0 bd
       -0.103231564 -0.38761908 -0.23996852 -0.10969113
000070 f0 dd b6 be 1a 9e 42 3e ca 65 68 3e 95 09 40 3d
       -0.357162 0.19005623 0.2269508 0.046884138
000080 77 96 20 be 4a 81 72 be a7 88 35 bd a6 19 8f 3e
       -0.15682398 -0.23682132 -0.044319775 0.27949256
000090 65 d0 e7 3c 55 80 b8 3d f6 7a f7 3e 90 6c 9d 3e
       0.028297612 0.090088524 0.48336 0.3074689
0000a0 eb 1a 22 3e b3 69 20 3e 64 b1 3a 3c e8 1f 64 bd
       0.15830581 0.15665321 0.011394832 -0.05569449
0000b0 f5 4e e8 bd 6d f3 a8 be 89 87 3a 3e d3 8b 8f bd
       -0.11343185 -0.3299822 0.18215765 -0.07009091
0000c0 0c 14 5d 3e 95 6c 4d be 15 08 31 be 10 dd 49 3c
       0.21589679 -0.20060952 -0.1728824 0.012320772
0000d0 a1 41 57 be b5 3c 9a 3d bb cd 04 bd c3 75 3c 3d
       -0.21021129 0.0753111 -0.032422762 0.046010744
0000e0 96 b6 cb 3d a5 bb 30 3d a0 d4 11 bf 6e 76 62 3e
       0.09946935 0.0431477 -0.56965065 0.2211549
0000f0 26 a1 d0 3e 7c ea 4d be 27 64 be bc 76 09 54 be
       0.40747947 -0.2010898 -0.023241116 -0.20706734
000100 27 82 dd bd 05 af e6 bd e9 0e 0c be 97 2b c0 bc
       -0.1081584 -0.11263851 -0.13677563 -0.023458285
000110 96 f1 44 be 6b 60 93 3d 3a 97 20 3e dc a6 2a bd
       -0.19232783 0.07196125 0.15682688 -0.041663036
000120 95 c2 ad 3e af 4a 80 3d 30 0f 88 bd 70 ba c3 3d
       0.33937517 0.06264245 -0.06643522 0.095570445
000130 27 08 8c bd 6b ed 56 3e 15 93 89 be a0 44 fe 3d
       -0.068374924 0.20989005 -0.26870027 0.12415433
000140 5e 91 41 3d 2d 90 e9 bd f7 e2 7f 3d 54 b9 05 bf
       0.047257774 -0.114044525 0.06247231 -0.52235913
000150 48 cb 11 3e 50 c4 b5 bd 85 b7 1f be a0 28 b5 be
       0.14237702 -0.08875334 -0.15597351 -0.35382557
000160 bc 4a 54 3d 6e 76 7c be a9 90 ed 3c 4d 22 0e be
       0.051829085 -0.24654552 0.028999643 -0.13880272
000170 bb f3 66 be a1 bf 76 3d 11 8e 93 3e e4 07 e0 3d
       -0.22553913 0.060241345 0.28819326 0.10939005
000180 2c ee 2a 3e e1 ae ff be 1c 6b f1 3d 88 25 67 be
       0.16692418 -0.4993811 0.117880076 -0.22572911
000190 20 f5 84 bd 22 41 c0 bd 55 5b 34 3d e6 08 03 be
       -0.064920664 -0.09387423 0.044032414 -0.12796363
0001a0 98 01 6c be f0 e7 80 bd 3b 23 0b 3d 13 3c c4 3e
       -0.23047483 -0.062942386 0.033969145 0.38327083
0001b0 a5 42 c7 bd ff 9b 9d be 71 9b 87 bd 77 31 1b be
       -0.09729508 -0.30783078 -0.06621445 -0.15155588
0001c0 cd f0 e4 bd c2 0a 52 3e 7a 2b 4b 3e 5a 4a d1 be
       -0.111787416 0.20511916 0.19840804 -0.40877038
0001d0 e8 f7 9a 3d 6f c1 92 3e 21 cc 8a bc d8 af 8a 3c
       0.075668156 0.28663203 -0.01694304 0.016929552
0001e0 11 df 27 bd 47 97 94 be 4a 88 62 be 73 17 ff bd
       -0.040984217 -0.29021665 -0.22122303 -0.124556445
0001f0 ee e6 a7 be 31 39 84 be 4a 80 1a be a1 91 95 3d
       -0.32793373 -0.25824884 -0.15088001 0.07303167
000200 79 e9 79 bd 0f 68 2e be 4f ae cd 3d f6 f5 39 be
       -0.061013673 -0.17031883 0.10043012 -0.18160233
000210 f0 71 d6 bb ce 84 1d bd 4e cf 62 be 32 d0 92 bd
       -0.006544344 -0.03845673 -0.22149393 -0.07168616
000220 48 88 1f 3e 26 81 31 3d 6f 20 49 be 43 34 83 3e
       0.15579331 0.043336056 -0.19641279 0.2562581
000230 5a a7 cd 3e d4 56 ed 3d b4 a7 f1 bd c9 3d c1 3d
       0.40166742 0.11588827 -0.11799565 0.09435613
000240 dc b3 f6 bd 65 33 5a 3e 5e 72 86 39 64 d7 8b 3d
       -0.12046024 0.21308668 0.00025643682 0.06828192
000250 84 31 4f 3e 41 48 2d 3e db 0a 83 3c f9 af 3c bc
       0.20233732 0.16922094 0.015996387 -0.0115165645
000260 0a 4c 8b bd ba 0a 56 be 11 72 86 3e 4c 2b 68 be
       -0.06801613 -0.2090253 0.262589 -0.22672766
000270 94 75 90 be cd 3c a9 bd 81 27 08 3d 48 32 43 3c
       -0.28214705 -0.0826355 0.0332408 0.011913843
000280 77 b2 35 be 20 4f cb 3d 8f 7d 69 3d c7 4a 84 be
       -0.1774386 0.09927201 0.057004508 -0.258383
000290 0a 88 10 be 93 bd 76 be 43 23 26 bd a9 73 7a 3c
       -0.14114395 -0.24095754 -0.040560972 0.015286365
0002a0 41 62 88 be c9 c2 21 3e d7 56 81 be da b2 df bb
       -0.26637462 0.15796961 -0.25261566 -0.0068267407
0002b0 3d a8 a9 bd 2b 52 b5 3d d6 c7 77 bd f0 44 81 3d
       -0.08284042 0.08853563 -0.060493313 0.06311977
0002c0 ca 32 15 3e f3 fc 61 3d 1d 06 99 3e ce fe 0a be
       0.14570156 0.05517287 0.29887477 -0.13573763
0002d0 54 3e 12 bd 39 99 16 be 2d 20 00 bd 76 aa bf 3e
       -0.035703972 -0.14706887 -0.031280685 0.3743474
0002e0 22 48 89 3d 6e 6a ad be 61 10 77 3d 09 40 97 3d
       0.06703211 -0.33870262 0.060318355 0.073852606
0002f0 ca 67 b4 ba 18 75 eb bd a4 86 aa be 89 5e b8 3d
       -0.0013763842 -0.11496943 -0.33305848 0.09002406
000300 0b e0 09 3d 1f 20 2e be ba 50 e0 3e bf 1e 11 be
       0.03366093 -0.1700444 0.4381159 -0.14171885
000310 30 06 69 be e4 9e 65 bd 7f 47 b9 3d 37 f3 7b be
       -0.22756267 -0.056059733 0.0904684 -0.24604498
000320 90 d7 bf be 88 82 34 be 80 3e cd 3e a1 6c 47 be
       -0.3746915 -0.17627919 0.40086746 -0.19475032
000330 de 8f 86 be e2 d6 68 3e 38 c9 96 3e b6 ce 26 be
       -0.26281637 0.22738221 0.29450393 -0.16289791
000340 8c 7f c2 bd 01 ae f9 bd 7c 73 e1 3e 05 20 64 bd
       -0.09496984 -0.12191392 0.4403342 -0.0556946
000350 79 a3 3e be aa 7d 2d 3b 06 9a 28 be d6 cf 7b 3d
       -0.18617047 0.0026472607 -0.16465005 0.061477505
000360 fa 6e 96 3d 39 6c ac bd fb 74 0f be 17 6f 97 be
       0.07345386 -0.08419079 -0.14009468 -0.29576942
000370 70 f9 fd bc d4 08 96 3e 7b 63 43 3d 4a 88 34 bd
       -0.03100273 0.2930361 0.047702294 -0.044075288
000380 c2 ac 1a 3d 43 ed 9d be 1b 52 f9 bd e9 f0 ef 3b
       0.03776241 -0.3084508 -0.121738635 0.00732242
000390 84 7a d9 b9 9b 5c cb 3d eb d9 76 3c ce 80 94 3e
       -0.00041480747 0.099297725 0.015066604 0.2900452
0003a0 f5 bc 2f be a3 c0 87 be df d4 06 3e 90 67 d5 bc
       -0.17161925 -0.26514158 0.13167141 -0.026050359
0003b0 d2 d4 f1 bb 04 a0 82 38 7d df d4 3d aa e6 64 bc
       -0.0073801065 6.228688e-05 0.103941895 -0.01397101
0003c0 6d 42 12 be 10 da 3a be 16 64 47 be 22 5a 27 be
       -0.14283152 -0.18247247 -0.19471774 -0.16342977
0003d0 0e cd 55 be 8b a5 1d be b6 0c 9d bd aa 06 ed bb
       -0.20879003 -0.15395181 -0.0766844 -0.0072334604
0003e0 d4 f0 36 be bb 7e 38 3d db 35 fc 3d d7 ac 4d bd
       -0.17865306 0.045042735 0.123149596 -0.05021366
0003f0 b2 8b 74 3e 9f 32 cb bd 78 e2 87 3d bb e6 6c be
       0.23881415 -0.099217646 0.06634992 -0.23134892

context_transformer_0/ffn_layer_1/intermediate_dense/einsum/Einsum;context_transformer_0/ffn_layer_1/intermediate_dense/Relu;context_transformer_0/ffn_layer_1/intermediate_dense/add f4 [32]
000000 e0 ab 1f be 68 84 60 3e 47 38 9d be 3a fe 03 be
       -0.15592909 0.21925509 -0.30707 -0.12889948
000010 84 8f ce bd ca 1e 1b be d4 90 11 3d 3a 4f cd be
       -0.10085967 -0.15148464 0.03553851 -0.40099508
000020 35 9a 0e 3e 06 22 d4 bd 22 97 1e be 92 c0 9f be
       0.13926013 -0.10358052 -0.1548734 -0.31201607
000030 52 b1 19 be b0 26 22 be 37 5f ad bd 52 29 e7 bd
       -0.15009049 -0.1583507 -0.084654264 -0.11287178
000040 78 a9 f8 3d 73 0a e5 be 6c d9 ff bd b8 ce ad be
       0.121416986 -0.44734535 -0.12492642 -0.33946776
000050 22 77 f9 be 68 dd 43 3e c0 44 ad bd 7a 24 19 be
       -0.48723704 0.19127429 -0.08460379 -0.14955321
000060 9d 16 5d 3d 7d 60 92 be 73 01 3d be 36 95 27 be
       0.053976644 -0.2858924 -0.18457584 -0.16365513
000070 21 63 0a be d8 15 39 be c7 04 aa be ab 63 1b be
       -0.13514377 -0.18074739 -0.3320677 -0.15174739

context_transformer_0/ffn_layer_0/norm/mul;context_transformer_0/ffn_layer_0/norm/add;context_transformer_0/ffn_layer_1/intermediate_dense/einsum/Einsum;context_transformer_0/ffn_layer_1/intermediate_dense/Relu;context_transformer_0/ffn_layer_1/intermediate_dense/add f4 [32, 32]
000000 a3 12 50 bd 12 31 1b be 8d ed 26 3d 71 3d d4 bd
       -0.050799023 -0.15155438 0.04075389 -0.103632815
000010 45 ae 61 3d 88 76 55 bd ec bd 2b 3e e8 ff 8c 3d
       0.055097837 -0.052114993 0.16771668 0.06884748
000020 08 70 6a 3d 76 ac 16 bc 45 9f 69 be 8f f3 0c be
       0.057235748 -0.009196391 -0.22814663 -0.13764785
000030 db e3 50 bd fa e0 d5 ba 07 37 ea 3b 45 60 f2 3d
       -0.05099855 -0.0016317659 0.007147673 0.11834768
000040 39 14 28 bd f9 b3 54 3d 63 4a 06 3c ff b5 44 bd
       -0.04103491 0.051929448 0.008196446 -0.048025128
000050 86 38 8b 3d a6 3c 4b bd 10 61 d0 3d 74 85 4a 3d
       0.0679789 -0.049618386 0.10174763 0.049443677
000060 8f 18 85 3c 2c e6 9d 3d 31 ab a6 bc 30 de 37 bc
       0.016247062 0.077099174 -0.020345302 -0.011222407
000070 c8 d2 18 3e 09 37 ff 3d 53 2f 96 bc 82 48 ec bd
       0.14924157 0.12461669 -0.018333113 -0.11537267
000080 ed 62 6f be f2 67 09 bd 3d c7 c1 3e c6 bc 22 be
       -0.23377581 -0.033546396 0.3784732 -0.15892324
000090 cd 8b 85 3d 88 30 16 be 81 f2 6b bd 2d f9 39 3e
       0.065208055 -0.1466695 -0.057604317 0.1816146
0000a0 3c 99 84 bd 2c c5 3b 3e a6 b0 cd bd 51 8a 91 be
       -0.0647454 0.18336934 -0.10043459 -0.2842584
0000b0 5e d8 8c bd 85 58 78 3e f6 56 a1 be 56 39 39 bc
       -0.06877206 0.24252518 -0.31511658 -0.011305174
0000c0 d8 aa 4e 3c 40 f1 1b be 8a 0e da 3d 3d 38 8a bd
       0.0126139745 -0.15228748 0.10647304 -0.06749008
0000d0 12 20 7e bb b4 8e 3c be a8 b6 12 3e d7 80 7f 3e
       -0.003877644 -0.18413812 0.1432749 0.24951492
0000e0 a7 e2 62 be 14 c9 cb be 4b 61 80 3d dc 81 82 bd
       -0.22156774 -0.39801848 0.06268557 -0.06372425
0000f0 a7 af 28 bd 1f b6 a5 3e b4 f4 25 be f5 84 32 3c
       -0.04118314 0.3236551 -0.16206628 0.010895957
000100 e6 9a 59 3e c9 86 35 be 59 e9 7f bd 92 26 5c 3e
       0.21250495 -0.17727198 -0.062478397 0.21499088
000110 37 2f 36 3e ba b5 0f 3e 64 e2 88 3d 81 25 df bd
       0.17791449 0.14034167 0.066838056 -0.10895825
000120 4a da 1b 3e 35 d2 bf bd 4b 0c 69 bd 26 85 3e bd
       0.1521999 -0.09366266 -0.05689649 -0.0465137
000130 ef 66 31 be 24 d0 8d be 30 6c c3 3c 5a 63 12 3e
       -0.17324422 -0.2769786 0.023855299 0.14295712
000140 bf 0e e0 bd a2 d2 cf be 70 9a bc bd 06 da ab be
       -0.109403126 -0.40590388 -0.09209144 -0.33564776
000150 45 87 92 be 58 a4 1b be 72 43 12 be ed 2c 07 3e
       -0.28618827 -0.15199411 -0.14283541 0.13200732
000160 fb 19 6f be c1 1a 20 3d aa 12 c8 3c aa dd 07 3e
       -0.23349755 0.039088015 0.024422962 0.13268152
000170 59 27 f1 3d 1f 5a db bd 8b 18 f3 bc 1b eb 95 be
       0.11775083 -0.107105486 -0.029674789 -0.29280934
000180 78 86 8a bd d7 e6 9f be 98 fb 67 3d b8 e2 ae bd
       -0.06763929 -0.31230804 0.056636423 -0.08539337
000190 bd 96 cd bd e8 85 7b bc bb 74 f2 3e 1c cc 8b 3d
       -0.10038517 -0.01535175 0.47354683 0.0682604
0001a0 70 f3 2e 3e b5 9e 2a bd 77 35 24 be 0e 3d 48 be
       0.17085052 -0.04165526 -0.1603602 -0.1955454
0001b0 08 b8 a7 bd b7 98 6b 3d 23 d9 66 3e 60 e9 8d 3d
       -0.08189398 0.057518687 0.22543769 0.069292784
0001c0 1e 69 ea 3d 40 6f 14 bd cc 13 da bb 60 f3 2f 3e
       0.11445831 -0.03623891 -0.006655192 0.17182684
0001d0 5e ca a5 bb 24 3f ad 3d 27 7b ef bd 62 f0 17 be
       -0.0050595244 0.08459309 -0.11693411 -0.14837793
0001e0 c4 e7 18 3e 47 ad ff bd ce d6 0a 3d 6f b2 32 be
       0.14932162 -0.12484222 0.03389626 -0.1745088
0001f0 3a fe 4a be 2e c8 f8 3c 9c 55 fa 3d 1d 0e 29 3e
       -0.19823542 0.03036889 0.1222336 0.1650929
000200 8f a5 25 3e 4b f2 fb bd 4f 54 8c 3e 7c ed f4 bd
       0.16176437 -0.12302073 0.27408072 -0.11959359
000210 f7 6e ec bd c9 8e 8b be f8 07 81 3d 62 8a 8b 3e
       -0.11544602 -0.27257374 0.06300348 0.27254015
000220 79 50 9b 3e 9d 43 d1 3d db 73 2e 3e c5 87 2a 3e
       0.30334833 0.10217974 0.17036383 0.16653354
000230 a1 6f c2 bc fd a1 16 3d 06 d7 be be 9b 57 fb bc
       -0.02373487 0.036775578 -0.37273425 -0.030681422
000240 62 81 6b be da e5 07 bd 0f b7 6d 3e 9f 97 8e 3e
       -0.22998574 -0.033178188 0.23214363 0.27850053
000250 64 ce 14 3d 13 5e d1 bd 91 d2 09 be f0 3b d6 3d
       0.036329642 -0.10223021 -0.13459231 0.10460651
000260 49 c8 96 be 5f 4d 28 bd a9 10 a1 3d 40 0c ce bd
       -0.2944968 -0.04108941 0.07864506 -0.1006093
000270 ad d4 92 bc 55 d3 38 be ca fc a3 3d 35 db da bc
       -0.017923677 -0.18049367 0.080072 -0.026715854
000280 1f 39 b4 bc 4d c1 0e bb 20 af 07 3f 76 d3 e0 be
       -0.021999894 -0.0021782697 0.53001595 -0.43911332
000290 7f fb 40 be ee 05 28 3e db c8 de bd 57 a6 56 3c
       -0.18845938 0.16408512 -0.10878154 0.013101182
0002a0 55 f7 8a 3e 5b be c1 bd ea 27 cb 3e aa c3 ba bb
       0.27141824 -0.094601355 0.3967889 -0.0056995945
0002b0 83 35 d2 bc 84 c1 0a be fc 73 85 be c1 3b 7d 3e
       -0.025660282 -0.13550383 -0.26065052 0.24729826
0002c0 49 ed 3a 3c 73 b5 ff 3c c4 7e 05 be 65 e7 5c be
       0.011409112 0.031214451 -0.13036638 -0.21572645
0002d0 22 5f 98 3b b9 33 fb bd 29 e2 0f 3e 3b 53 a1 bd
       0.0046500126 -0.12265725 0.14051117 -0.07877203
0002e0 6b 8a 1d 39 30 99 6c be 91 cb 83 3d 31 5b 19 be
       0.00015024251 -0.23105311 0.064353116 -0.14976193
0002f0 0d a3 26 3d 34 2a a9 bc 5b 64 c2 3d b2 34 82 bd
       0.04068284 -0.020650007 0.094917975 -0.06357707
000300 b7 f6 dd bd 74 20 2f be 3c 7f 2b 3d ce af 30 3d
       -0.10838073 -0.17102224 0.041869387 0.04313641
000310 62 b1 1f be 3e 60 8f bc f0 51 34 bd 1c 26 50 3d
       -0.1559501 -0.017501947 -0.044023454 0.050817594
000320 22 c9 0f 3e 4a c6 7a be 42 66 34 3e 55 3a 58 3c
       0.1404157 -0.24489704 0.17617133 0.013197501
000330 9d 1f 87 3d 1c d0 1f be 85 7c b4 be 34 d0 e7 3d
       0.06597827 -0.15606731 -0.3525125 0.113190085
000340 31 ba 0d be e1 c6 d5 bc 2c 0d f9 3c 4f 64 2b 3d
       -0.13840558 -0.02609581 0.030401789 0.04184371
000350 de 87 cb 3d d9 ca 05 3e 7b 95 cb bc 4a de f5 3d
       0.09938024 0.13065661 -0.024851551 0.12005289
000360 f8 1a 41 be d9 60 cd be e5 4d 14 bd 4c 81 6a 3d
       -0.18857944 -0.4011295 -0.0362071 0.057252213
000370 2a fb c1 bd cc a8 8e bd 75 0e 11 3d d6 66 93 be
       -0.09471734 -0.06965789 0.035414178 -0.28789395
000380 55 0d 76 bc 30 06 2e be 67 6b dd bd 34 9c 96 be
       -0.015017827 -0.16994548 -0.10811501 -0.2941605
000390 a3 fd e7 bd 91 14 f5 3d 1a 6c 76 bd f1 1f 33 bd
       -0.11327674 0.11966813 -0.060161687 -0.043731634
0003a0 fc 46 51 3e 15 f5 41 3d 71 25 ab 3d 8e df c2 be
       0.20437235 0.04735287 0.08356751 -0.38061184
0003b0 f2 bd ac bd 26 ec 01 bd af a4 65 be e9 04 c6 3e
       -0.08434667 -0.03171935 -0.22426103 0.3867562
0003c0 e3 28 29 3e 0b 5a d2 bc 12 0e 30 be e9 e5 29 be
       0.16519503 -0.025677701 -0.17192867 -0.1659161
0003d0 21 d2 4d 3d 45 ee 4c be 38 cd 4d 3e 24 f3 a9 be
       0.050249223 -0.20012768 0.20097816 -0.33193314
0003e0 73 1c c0 3d e7 47 2f be 36 3f 45 3d 44 3b df be
       0.09380426 -0.17117272 0.048155986 -0.43599904
0003f0 18 8b 3a 3a fb ba 57 3e 9b 2b a1 3d 08 19 06 3e
       0.00071160635 0.21067421 0.07869645 0.13095486

context_transformer_0/ffn_layer_2/intermediate_dense/einsum/Einsum;context_transformer_0/ffn_layer_2/intermediate_dense/Relu;context_transformer_0/ffn_layer_2/intermediate_dense/add f4 [32]
000000 df 0c 55 be 1e 7b 4c 3d 7b f0 56 bd b5 a3 fc bd
       -0.20805691 0.0499221 -0.052475434 -0.12335912
000010 13 c6 02 be 90 8b 1b be 40 ac 1a be 50 6a a8 be
       -0.12770872 -0.15189958 -0.1510477 -0.3289361
000020 9f 95 0c be 74 9b 89 be 5d 12 05 be c4 4b 08 3e
       -0.13728951 -0.26876414 -0.12995286 0.13310152
000030 7e 49 35 bd e2 cf 1d bd 34 dc 22 be 8a 5c 84 bd
       -0.04425954 -0.03852833 -0.15904313 -0.06462963
000040 6a 38 e4 be 99 c0 5b 3d b6 69 0d 3e 7c 32 c8 be
       -0.4457429 0.053650472 0.13809857 -0.39101017
000050 76 54 81 bc ab 9e bb be 27 41 12 be 74 be 3e be
       -0.015787344 -0.36644492 -0.14282666 -0.1862734
000060 c4 6b d2 be b8 cd 7a bc 91 ef 82 3e c6 21 9b bd
       -0.41097844 -0.015307836 0.255734 -0.07574801
000070 4e af 6b bd 45 ef 1b 3d 42 ab 97 be a0 df 86 bc
       -0.05754023 0.038069982 -0.29622847 -0.016464055
